…
        "colab": {
          "base_uri": "https://localhost:8080/",
          "height": 1000
        }
      },
      "source": [
        "model.summary()"
      ],
      "execution_count": 0,
      "outputs": [
        {
          "output_type": "stream",
          "text": [
            "Model: \"sequential_1\"\n",
            "_________________________________________________________________\n",
            "Layer (type)                 Output Shape              Param #   \n",
            "=================================================================\n",
            "conv2d_1 (Conv2D)            (None, 32, 32, 48)        1344      \n",
            "_________________________________________________________________\n",
            "activation_1 (Activation)    (None, 32, 32, 48)        0         \n",
            "_________________________________________________________________\n",
            "conv2d_2 (Conv2D)            (None, 30, 30, 48)        20784     \n",
            "_________________________________________________________________\n",
            "activation_2 (Activation)    (None, 30, 30, 48)        0         \n",
            "_________________________________________________________________\n",
            "max_pooling2d_1 (MaxPooling2 (None, 15, 15, 48)        0         \n",
            "_________________________________________________________________\n",
            "dropout_1 (Dropout)          (None, 15, 15, 48)        0         \n",
            "_________________________________________________________________\n",
            "conv2d_3 (Conv2D)            (None, 15, 15, 96)        41568     \n",
            "_________________________________________________________________\n",
            "activation_3 (Activation)    (None, 15, 15, 96)        0         \n",
            "_________________________________________________________________\n",
            "conv2d_4 (Conv2D)            (None, 13, 13, 96)        83040     \n",
            "_________________________________________________________________\n",
            "activation_4 (Activation)    (None, 13, 13, 96)        0         \n",
            "_________________________________________________________________\n",
            "max_pooling2d_2 (MaxPooling2 (None, 6, 6, 96)          0         \n",
            "_________________________________________________________________\n",
            "dropout_2 (Dropout)          (None, 6, 6, 96)          0         \n",
            "_________________________________________________________________\n",
            "conv2d_5 (Conv2D)            (None, 6, 6, 192)         166080    \n",
            "_________________________________________________________________\n",
            "activation_5 (Activation)    (None, 6, 6, 192)         0         \n",
            "_________________________________________________________________\n",
            "conv2d_6 (Conv2D)            (None, 4, 4, 192)         331968    \n",
            "_________________________________________________________________\n",
            "activation_6 (Activation)    (None, 4, 4, 192)         0         \n",
            "_________________________________________________________________\n",
            "max_pooling2d_3 (MaxPooling2 (None, 2, 2, 192)         0         \n",
            "_________________________________________________________________\n",
            "dropout_3 (Dropout)          (None, 2, 2, 192)         0         \n",
            "_________________________________________________________________\n",
            "flatten_1 (Flatten)          (None, 768)               0         \n",
            "_________________________________________________________________\n",
            "dense_1 (Dense)              (None, 512)               393728    \n",
            "_________________________________________________________________\n",
            "activation_7 (Activation)    (None, 512)               0         \n",
            "_________________________________________________________________\n",
            "dropout_4 (Dropout)          (None, 512)               0         \n",
            "_________________________________________________________________\n",
            "dense_2 (Dense)              (None, 256)               131328    \n",
            "_________________________________________________________________\n",
            "activation_8 (Activation)    (None, 256)               0         \n",
            "_________________________________________________________________\n",
            "dropout_5 (Dropout)          (None, 256)               0         \n",
            "_________________________________________________________________\n",
            "dense_3 (Dense)              (None, 10)                2570      \n",
            "=================================================================\n",
            "Total params: 1,172,410\n",
            "Trainable params: 1,172,410\n",
            "Non-trainable params: 0\n",
            "_________________________________________________________________\n"
          ],
          "name": "stdout"
        }
      ]
    },
    {
      "cell_type": "code",
…
        "\n",
        "mymodel.add(GlobalAveragePooling2D())\n",
        "mymodel.add(Activation('softmax'))\n",
        "\n",
        "mymodel.summary()"
      ],
      "execution_count": 74,
      "outputs": [
        {
          "output_type": "stream",
          "text": [
            "Model: \"sequential_25\"\n",
            "_________________________________________________________________\n",
            "Layer (type)                 Output Shape              Param #   \n",
            "=================================================================\n",
            "separable_conv2d_211 (Separa (None, 30, 30, 32)        155       \n",
            "_________________________________________________________________\n",
            "batch_normalization_211 (Bat (None, 30, 30, 32)        128       \n",
            "_________________________________________________________________\n",
            "dropout_211 (Dropout)        (None, 30, 30, 32)        0         \n",
            "_________________________________________________________________\n",
            "separable_conv2d_212 (Separa (None, 28, 28, 64)        2400      \n",
            "_________________________________________________________________\n",
            "batch_normalization_212 (Bat (None, 28, 28, 64)        256       \n",
            "_________________________________________________________________\n",
            "dropout_212 (Dropout)        (None, 28, 28, 64)        0         \n",
            "_________________________________________________________________\n",
            "separable_conv2d_213 (Separa (None, 26, 26, 64)        4736      \n",
            "_________________________________________________________________\n",
            "batch_normalization_213 (Bat (None, 26, 26, 64)        256       \n",
            "_________________________________________________________________\n",
            "dropout_213 (Dropout)        (None, 26, 26, 64)        0         \n",
            "_________________________________________________________________\n",
            "separable_conv2d_214 (Separa (None, 12, 12, 64)        4736      \n",
            "_________________________________________________________________\n",
            "batch_normalization_214 (Bat (None, 12, 12, 64)        256       \n",
            "_________________________________________________________________\n",
            "dropout_214 (Dropout)        (None, 12, 12, 64)        0         \n",
            "_________________________________________________________________\n",
            "separable_conv2d_215 (Separa (None, 10, 10, 128)       8896      \n",
            "_________________________________________________________________\n",
            "batch_normalization_215 (Bat (None, 10, 10, 128)       512       \n",
            "_________________________________________________________________\n",
            "dropout_215 (Dropout)        (None, 10, 10, 128)       0         \n",
            "_________________________________________________________________\n",
            "separable_conv2d_216 (Separa (None, 8, 8, 128)         17664     \n",
            "_________________________________________________________________\n",
            "batch_normalization_216 (Bat (None, 8, 8, 128)         512       \n",
            "_________________________________________________________________\n",
            "dropout_216 (Dropout)        (None, 8, 8, 128)         0         \n",
            "_________________________________________________________________\n",
            "separable_conv2d_217 (Separa (None, 3, 3, 128)         17664     \n",
            "_________________________________________________________________\n",
            "batch_normalization_217 (Bat (None, 3, 3, 128)         512       \n",
            "_________________________________________________________________\n",
            "dropout_217 (Dropout)        (None, 3, 3, 128)         0         \n",
            "_________________________________________________________________\n",
            "separable_conv2d_218 (Separa (None, 3, 3, 256)         34176     \n",
            "_________________________________________________________________\n",
            "batch_normalization_218 (Bat (None, 3, 3, 256)         1024      \n",
            "_________________________________________________________________\n",
            "dropout_218 (Dropout)        (None, 3, 3, 256)         0         \n",
            "_________________________________________________________________\n",
            "separable_conv2d_219 (Separa (None, 3, 3, 10)          4874      \n",
            "_________________________________________________________________\n",
            "batch_normalization_219 (Bat (None, 3, 3, 10)          40        \n",
            "_________________________________________________________________\n",
            "dropout_219 (Dropout)        (None, 3, 3, 10)          0         \n",
            "_________________________________________________________________\n",
            "global_average_pooling2d_24  (None, 10)                0         \n",
            "_________________________________________________________________\n",
            "activation_24 (Activation)   (None, 10)                0         \n",
            "=================================================================\n",
            "Total params: 98,797\n",
            "Trainable params: 97,049\n",
            "Non-trainable params: 1,748\n",
            "_________________________________________________________________\n"
          ],
          "name": "stdout"
        }
      ]
    },
    {
      "cell_type": "code",
…
